…
nding to the input quaternion.\n\nInput: \n```python\ntorch.tensor([0.7071, 0.0, 0.7071, 0.0])\n```\n\nOutput: \n```python\ntorch.tensor([[ 0.,  0.,  1.],\n        [ 0., -1.,  0.],\n        [ 1.,  0.,  0.]])\n```", "ground_truth_code": "import torch\nimport math\n\n# main code\ndef quat2mat(quaternion):\n    EPS = 1e-8\n    inds = torch.tensor([3, 0, 1, 2])\n    q = quaternion.clone().detach().float()[inds]\n\n    n = torch.dot(q, q)\n    if n < EPS:\n        return torch.eye(3)\n\n    q *= math.sqrt(2.0 / n)\n    q_outer = torch.outer(q, q)\n\n    return torch.tensor([\n        [1.0 - q_outer[2, 2] - q_outer[3, 3], q_outer[1, 2] - q_outer[3, 0], q_outer[1, 3] + q_outer[2, 0]],\n        [q_outer[1, 2] + q_outer[3, 0], 1.0 - q_outer[1, 1] - q_outer[3, 3], q_outer[2, 3] - q_outer[1, 0]],\n        [q_outer[1, 3] - q_outer[2, 0], q_outer[2, 3] + q_outer[1, 0], 1.0 - q_outer[1, 1] - q_outer[2, 2]]\n    ])", "test_script": "import torch\n\ndef test_case_input_generator(n=200):\n    test_cases = []\n    for _ in range(n):\n        # Generate random quaternion components\n        quaternion = torch.randn(4)  # Random numbers from a normal distribution\n\n        # Normalize the quaternion to ensure it represents a valid rotation\n        quaternion /= quaternion.norm() + 1e-8\n\n        test_cases.append(quaternion)\n    return test_cases"}
…
nd hidden layer.\n\nOutput format:\n- The function returns a Keras Model object that can be used for training and inference.\n\n```python\nInput: (action_dim=4, state_dim=6, hidden_units_1=32, hidden_units_2=64)\nOutput: Model Summary: \n_________________________________________________________________\n Layer (type)                Output Shape              Param #   \n=================================================================\n input_1 (InputLayer)        [(None, 6)]              0         \n input_2 (InputLayer)        [(None, 4)]              0         \n dense (Dense)               (None, 32)               224       \n dense_1 (Dense)             (None, 64)               2112      \n dense_2 (Dense)             (None, 64)               320       \n add (Add)                   (None, 64)               0         \n dense_3 (Dense)             (None, 64)               4160      \n dense_4 (Dense)             (None, 1)                65        \n=================================================================\nTotal params: 6,881\nTrainable params: 6,881\nNon-trainable params: 0\n_________________________________________________________________\n```", "ground_truth_code": "from keras.layers import Input, Dense, Add\nfrom keras.models import Model\n\n# main code\ndef build_baseline_model(action_dim, state_dim, hidden_units_1, hi
…
tput**: The function returns a Keras model object that can be compiled and trained on the specified input data.\n\nInput:\n```python\nreg = regularizers.l2(0.01)\ninp_shape = (64, 64, 3)\nnum_classes = 10\n```\n\nOutput:\n```python\nModel Summary:\n_________________________________________________________________\n Layer (type)                Output Shape              Param #\n=================================================================\n input_1 (InputLayer)        [(None, 64, 64, 3)]      0\n_________________________________________________________________\n conv2d (Conv2D)             (None, 32, 32, 120)      3240\n_________________________________________________________________\n batch_normalization (BatchN  (None, 32, 32, 120)      480\n ormalization)                                                  \n_________________________________________________________________\n max_pooling2d (MaxPooling2D  (None, 16, 16, 120)     0\n )                                                              \n_________________________________________________________________\n conv2d_1 (Conv2D)           (None, 16, 16, 256)      307200\n_________________________________________________________________\n max_pooling2d_1 (MaxPooling  (None, 8, 8, 256)       0\n 2D)                                                           \n_________________________________________________________________\n conv2d_2 (Conv2D)           (None, 8, 8, 384)        884736\n_________________________________________________________________\n batch_normalization_1 (Batc  (None, 8, 8, 384)       1536\n hNormalization)                                              \n_________________________________________________________________\n time_attention (Conv2D)     (None, 8, 8, 64)         17216\n_________________________________________________________________\n frequency_attention (Conv2D) (None, 8, 8, 64)         17216\n_________________________________________________________________\n concatenate (Concatenate)    (None, 8, 8, 128)        0\n_________________________________________________________________\n batch_normalization_2 (Batc  (None, 8, 8, 128)       512\n hNormalization)                                              \n_________________________________________________________________\n conv2d_3 (Conv2D)           (None, 4, 4, 120)        138240\n_________________________________________________________________\n batch_normalization_3 (Batc  (None, 4, 4, 120)       480\n hNormalization)                                              \n_________________________________________________________________\n flatten (Flatten)           (None, 1920)             0\n_________________________________________________________________\n dense (Dense)               (None, 80)               153680\n_________________________________________________________________\n batch_normalization_4 (Batc  (None, 80)              320\n hNormalization)                                              \n_________________________________________________________________\n dense_1 (Dense)             (None, 10)               810\n=================================================================\nTotal params: 1,487,000\nTrainable params: 1,485,000\nNon-trainable params: 2,000\n_________________________________________________________________\n```", "ground_truth_code": "from tensorflow import keras\nfrom keras import layers\n\ndef time_attention(inp, reg):\n    x = layers.Conv2D(filters=64, kernel_size=(1, 9), activation
…
eger representing the number of features in the generated time series data.\n- `latent_shape`: A tuple representing the shape of the latent space input.\n\nOutput format:\n- The function returns a Keras Model object that can be used to generate time series data from latent space inputs.\n\n```python\nInput: (ts_feature=15, latent_shape=(32,))\nOutput: Model Summary:\n_________________________________________________________________\n Layer (type)                Output Shape              Param #   \n=================================================================\n dense (Dense)               (None, 100)              3300      \n                                                                 \n leaky_re_lu (LeakyReLU)    (None, 100)              0         \n                                                                 \n layer_normalization (LayerN  (None, 100)              200       \n ormalization)                                                  \n                                                                 \n dense_1 (Dense)             (None, 100)              10100     \n                                                                 \n leaky_re_lu_1 (LeakyReLU)  (None, 100)              0         \n                                                                 \n layer_normalization_1 (Laye  (None, 100)              200       \n rNormalization)                                                \n                                                                 \n dense_2 (Dense)             (None, 15)               1515      \n                                                                 \n=================================================================\nTotal params: 13,315\nTrainable params: 13,215\nNon-trainable params: 100\n_________________________________________________________________\n```", "ground_truth_code": "from keras.models import Sequential\nfrom keras.layers import Input\nfrom keras.models i
…
